checkpoints/long_term_forecast_test_DLinear_custom_ftMS_sl96_ll48_pl30_dm32_nh8_el2_dl1_df32_fc3_ebtimeF_dtTrue_test_0/checkpoint.pth (torch, 25009 bytes, 4 tensors)

Linear_Seasonal.weight f4 [30, 96]
0	0x3d033ec3	0.032042276
1	0x3cafc137	0.021454437
2	0x3c620801	0.013795854
3	0x3c32d4f8	0.0109150335
4	0x3bb62932	0.00555911
5	0xba63f996	-0.0008696554
6	0x3a1a21b5	0.00058796565
7	0x3b1eaed3	0.002421309
8	0x3b9040d3	0.004402259
9	0x3aea180a	0.0017859947
10	0xbb78e489	-0.0037978014
11	0xba43eb46	-0.0007473718
12	0xbb40d346	-0.0029422804
13	0x3b56e5bd	0.0032790743
14	0x3ac93e68	0.0015353682
15	0x3aeab635	0.0017907085
16	0xb980e9a6	-0.00024588144
17	0x3b1dab45	0.0024058383
18	0x3b137a43	0.0022503294
19	0x3bf1f76f	0.0073842327
20	0x3c714785	0.014726524
21	0x3c50d746	0.012746638
22	0x3c9107a6	0.017703842
23	0x3cc80ae5	0.024419257
24	0x3cea8b0e	0.02863076
25	0x3cd64edb	0.026160648
26	0x3cb56c80	0.022146463
27	0x3c960296	0.01831178
28	0x3c3c3265	0.011486624
29	0x3c34c03c	0.01103216
30	0x3bf3f466	0.007444906
31	0x3aac2afe	0.0013135371
32	0x3aba2234	0.0014200867
33	0x35f77ec5	1.8439829e-06
34	0xbae05077	-0.0017113824
35	0xbac1c249	-0.0014782633
36	0x39121965	0.00013933105
37	0x39302ccb	0.00016801355
38	0x3a6e2aaf	0.000908534
39	0xb9a9d93e	-0.0003239605
40	0x3a3afa45	0.000713263
41	0xbb1b15b8	-0.0023664068
42	0x3b70f3af	0.003676634
43	0x3c430dcd	0.011905146
44	0x3c75081d	0.014955548
45	0x3ca7c50e	0.020479705
46	0x3cc2090f	0.02368596
47	0x3cce843a	0.025209535
48	0x3d062585	0.032750625
49	0x3cd235a5	0.025660345
50	0x3cbd4f33	0.023109054
51	0x3caa4670	0.02078554
52	0x3c622cc8	0.013804622
53	0x3c1a3d23	0.00941399
54	0x3c3f8f7c	0.011691924
55	0x3b772185	0.0037709188
56	0x3b3fe9ca	0.0029283636
57	0x3a4802ba	0.0007629801
58	0xbb788ac8	-0.0037924517
59	0xbbe2f61a	-0.0069263102
60	0xbc048007	-0.008087165
61	0xbc005ff0	-0.007835373
62	0xbc1df7bf	-0.009641587
63	0xbb8d3070	-0.0043087527
64	0xb9227e91	-0.00015496674
65	0xba8f388a	-0.0010926884
66	0x3bace51a	0.0052763345
67	0x3c3263b0	0.010888025
68	0x3c41900f	0.011814131
69	0x3c8ab02e	0.016929712
70	0x3ca3007b	0.01989769
71	0x3cb84112	0.022491965
72	0x3cc93975	0.02456353
73	0x3cd26651	0.025683554
74	0x3cc3eb19	0.023915814
75	0x3c8f8c06	0.017522823
76	0x3c6b0542	0.014344515
77	0x3c2279f1	0.009916768
78	0x3c1c151d	0.009526518
79	0x3baead2e	0.005330703
80	0x3b7b8057	0.0038376057
81	0xbb6b6b02	-0.0035921936
82	0xbb88e2af	-0.0041774134
83	0xbb7be32a	-0.003843496
84	0xbbb09875	-0.005389268
85	0xbbdde897	-0.0067721116
86	0xbc1ead1d	-0.009684828
87	0xbc54b6d3	-0.012983042
88	0xbc47b4b0	-0.012189075
89	0xbc33eb0a	-0.010981331
90	0xbb605cd1	-0.003423501
91	0xb783bcc7	-1.5704323e-05
92	0x3bf19e43	0.0073736026
93	0x3c6080e6	0.013702607
94	0x3cba6ab9	0.022755967
95	0x3d366083	0.044525634
96	0x3cfd9778	0.030956015
97	0x3cabfe5a	0.020995308
98	0x3ca6dac3	0.020367986
99	0x3c4dc74d	0.012559724
100	0x3c305baf	0.010764047
101	0x3bab12fc	0.005220769
102	0xb963fb38	-0.00021741993
103	0x3ab1088b	0.0013506574
104	0x3b2d446d	0.002643849
105	0x3ba64a74	0.0050747935
106	0x3acf2f60	0.0015806966
107	0xbb2ab037	-0.0026044974
108	0xba9fcf78	-0.0012192568
109	0xbb0db210	-0.0021621026
110	0x3b234428	0.002491245
111	0x3a9bc894	0.0011885338
112	0x3af63acb	0.0018785832
113	0x3a57acfe	0.0008227377
114	0x3a51b30e	0.00079993985
115	0x3adadf0f	0.0016698557
116	0x3be9b689	0.0071323556
117	0x3c66c9ac	0.014086168
118	0x3c574b73	0.013140547
119	0x3c9106c6	0.017703425
120	0x3cc49c1e	0.024000224
121	0x3cfe2f6a	0.031028468
122	0x3ce07b6b	0.0274026
123	0x3cbc3a30	0.022976965
124	0x3ca53350	0.02016607
125	0x3c468885	0.01211751
126	0x3c3f76f7	0.011686078
127	0x3c042689	0.008065828
128	0x3ad691a5	0.001637031
129	0x3ab360f4	0.001368551
130	0xba8e143d	-0.0010839772
131	0xb9e42272	-0.00043513213
132	0xba7c60f5	-0.0009627485
133	0xba2a24b3	-0.0006490454
134	0xba3ab801	-0.00071227556
135	0x3a947368	0.0011325898
136	0xba7ee6db	-0.0009723731
137	0xba083dd2	-0.00051972
138	0xbb4002c7	-0.002929853
139	0x3b36df2f	0.0027904024
140	0x3c329959	0.010900819
141	0x3c70867d	0.014680502
142	0x3ca3ecbd	0.020010347
143	0x3cc0be42	0.023528222
144	0x3cdf5c3f	0.027265666
145	0x3d05119a	0.03248749
146	0x3cea5a49	0.028607504
147	0x3cb9a91f	0.022663651
148	0x3cade658	0.021228
149	0x3c685a6e	0.014181716
150	0x3c32dc6d	0.010916811
151	0x3c46c9f4	0.01213311
152	0x3b92ed8e	0.004483885
153	0x3b9372f5	0.004499788
154	0x3a351ee1	0.00069092034
155	0xbb2856be	-0.0025686468
156	0xbbf9ae8a	-0.0076196836
157	0xbbfff291	-0.0078108986
158	0xbc06077c	-0.008180495
159	0xbc30c2db	-0.010788645
160	0xbb861603	-0.0040919795
161	0xba633010	-0.00086665247
162	0xbafb95c7	-0.0019194417
163	0x3b8e2ac1	0.0043385928
164	0x3c2b2cb1	0.010447667
165	0x3c4155c1	0.0118002305
166	0x3c86a2ee	0.016435113
167	0x3ca216e4	0.019786306
168	0x3cc109f5	0.023564318
169	0x3cd7ecd8	0.026358053
170	0x3cdde74f	0.027087836
171	0x3cb8d9e8	0.022564843
172	0x3c970085	0.018432865
173	0x3c68c047	0.014205999
174	0x3c1e6f0d	0.009670031
175	0x3c3157d4	0.0108241625
176	0x3bb1ee01	0.0054299836
177	0x3ba0b789	0.0049046916
178	0xbb282060	-0.0025654063
179	0xbb56fc0b	-0.0032804038
180	0xbaf4890b	-0.0018656565
181	0xbb909f1c	-0.0044134986
182	0xbb995933	-0.004679823
183	0xbbcaf062	-0.0061932066
184	0xbc0e4edf	-0.0086857965
185	0xbc02dc93	-0.007987159
186	0xbbc0652e	-0.0058714366
187	0x3b70d85c	0.0036750054
188	0x3c11dd05	0.008902793
189	0x3c930db3	0.017950868
190	0x3ce16ff2	0.0275192
191	0x3d2c789f	0.04210722
192	0x3cd979ba	0.026547302
193	0x3ca86de3	0.02056021
194	0x3ca43f33	0.020049667
195	0x3c9d2769	0.019183831
196	0x3c5d22ad	0.013497037
197	0x3c357436	0.01107507
198	0x3bc3a10c	0.005970126
199	0x36e172dc	6.718894e-06
200	0x3af404af	0.0018617118
201	0x3b496216	0.003072863
202	0x3b9d0e70	0.004792981
203	0x3b142c7e	0.0022609527
204	0xbb5d41f8	-0.0033761244
205	0xbac0f329	-0.0014720905
206	0xbb30986a	-0.0026946315
207	0x3b09d93c	0.0021034023
208	0x39ee017e	0.0004539601
209	0x3aed981b	0.0018126996
210	0xba902963	-0.0010998662
211	0x3a36c5e8	0.00069722394
212	0x3b149256	0.002267023
213	0x3bd75e59	0.0065725264
214	0x3c5d96eb	0.013524751
215	0x3c5f9811	0.013647095
216	0x3c90226c	0.017594539
217	0x3cd81e91	0.026381763
218	0x3cf887a4	0.030338116
219	0x3cdb2098	0.02674894
220	0x3cc81c0c	0.024427436
221	0x3ca59112	0.020210776
222	0x3c4bcd32	0.012439059
223	0x3c41d494	0.011830468
224	0x3c086d05	0.0083267735
225	0x3aa535a0	0.0012604482
226	0x3aa580ce	0.0012626888
227	0xb9e3c624	-0.0004344444
228	0xb9b16fcc	-0.00033843366
229	0xbaabee49	-0.0013117279
230	0xb9da35dd	-0.00041620331
231	0xbabce774	-0.001441224
232	0x3a3cc5b8	0.0007201093
233	0xba8ee83c	-0.0010902951
234	0xbaa6557d	-0.0012690272
235	0xbb6fad42	-0.0036571776
236	0x3b32e8a9	0.002729932
237	0x3c2ef293	0.010677951
238	0x3c67970b	0.014135133
239	0x3ca50c21	0.020147385
240	0x3ccfe9c1	0.025380017
241	0x3cda16aa	0.026622135
242	0x3d0b5757	0.03401884
243	0x3cdf8f05	0.027289877
244	0x3cc602bb	0.024171224
245	0x3ca9acd4	0.020712294
246	0x3c76d9cf	0.015066578
247	0x3c2d90f0	0.010593638
248	0x3c47ce26	0.012195146
249	0x3bad33ad	0.0052857012
250	0x3b70b3ed	0.0036728338
251	0x3a053ff5	0.00050830777
252	0xbb817018	-0.00395013
253	0xbbfadb8a	-0.0076555656
254	0xbc0cde88	-0.008597977
255	0xbc026643	-0.007958951

Linear_Seasonal.bias f4 [30]
0	0x3caeec8f	0.021353034
1	0xbc963371	-0.018335076
2	0x3ca1af6b	0.019736966
3	0xbc2a188b	-0.010381828
4	0x3d6dda66	0.05806961
5	0x3b13f0c1	0.002257392
6	0xbce383a1	-0.027772726
7	0xbc4f809c	-0.01266494
8	0x3d4d9bd9	0.050197456
9	0xbd403b6d	-0.046931673
10	0xbcd7bfb1	-0.026336523
11	0x3d9a8233	0.07544365
12	0xbca3e8fb	-0.020008555
13	0xbd98f693	-0.07468905
14	0x3d6fca16	0.058542334
15	0xbd7e7f32	-0.06213302
16	0xbb8609c8	-0.0040905215
17	0xb92d8969	-0.00016549755
18	0xbd683bc4	-0.056697622
19	0xbd2b550c	-0.041829154
20	0xba2f2deb	-0.00066825625
21	0xbd684651	-0.056707684
22	0xbd90e3fc	-0.070747346
23	0xbd16bd9d	-0.036801923
24	0x3d939f9a	0.07208176
25	0xbce490e9	-0.02790113
26	0x3d7d7f82	0.06188918
27	0x3ce5f954	0.02807299
28	0xbd4ea9b0	-0.050454795
29	0x3d45d5fd	0.04829978

Linear_Trend.weight f4 [30, 96]
0	0x3c204d4c	0.009784054
1	0x3c0ddbb6	0.00865834
2	0x3bf3a4c2	0.007435412
3	0x3bcbeb08	0.0062230863
4	0x3ba20fe0	0.00494574
5	0x3b6fdd9d	0.0036600598
6	0x3b1b1460	0.0023663267
7	0x3a9fd4a6	0.0012194111
8	0x39b5415e	0.00034571713
9	0xba0262c1	-0.0004973822
10	0xba9c3542	-0.0011917728
11	0xbac6ebd4	-0.0015176483
12	0xbad53acc	-0.0016268133
13	0xbaf37dfa	-0.0018576973
14	0xbb07124b	-0.0020610269
15	0xbb04c07e	-0.0020256336
16	0xbb0a30cc	-0.0021086214
17	0xbb16022d	-0.002288948
18	0xbb0bb234	-0.0021315934
19	0xbb1408c7	-0.002258824
20	0xbb192784	-0.00233695
21	0xbb2bd084	-0.0026216814
22	0xbb33ffce	-0.0027465704
23	0xbb285131	-0.002568316
24	0xbb179ed8	-0.002313545
25	0xbb088028	-0.002082834
26	0xbb021cbb	-0.001985355
27	0xbaf3a504	-0.0018588607
28	0xbae39d2a	-0.0017365564
29	0xbad99b3b	-0.0016602048
30	0xbac13142	-0.0014739411
31	0xba7e59f8	-0.00097027374
32	0xb9e1a2a5	-0.00043036524
33	0x3905d59e	0.00012763447
34	0x3a5e022e	0.0008468953
35	0x3ac98e0e	0.0015377419
36	0x3b0b1033	0.0021219372
37	0x3b125112	0.0022326154
38	0x3b176365	0.0023100015
39	0x3b2134a7	0.0024598034
40	0x3b212eff	0.0024594662
41	0x3b2b7db7	0.0026167461
42	0x3b3cf9c5	0.0028835398
43	0x3b463523	0.0030244074
44	0x3b5abe92	0.003337775
45	0x3b639c39	0.0034730567
46	0x3b69861a	0.003563291
47	0x3b67da82	0.0035378044
48	0x3b64d50a	0.003491702
49	0x3b5dd7cb	0.0033850546
50	0x3b5361ff	0.0032254455
51	0x3b5159bf	0.0031944362
52	0x3b5d5a99	0.0033775924
53	0x3b647124	0.0034857476
54	0x3b8073b4	0.003920043
55	0x3b906ad7	0.0044072676
56	0x3b980f49	0.004640494
57	0x3ba11233	0.0049154996
58	0x3ba51b31	0.005038642
59	0x3baee048	0.005336795
60	0x3bb47f74	0.0055083577
61	0x3bb4cfb6	0.005517925
62	0x3bbc2a92	0.0057423795
63	0x3bc9721f	0.0061476375
64	0x3bd65ab0	0.0065415725
65	0x3be93ffe	0.007118224
66	0x3c02de7c	0.007987615
67	0x3c0fff4a	0.008788893
68	0x3c1e92e2	0.009678574
69	0x3c2aae82	0.0104175825
70	0x3c3a4c78	0.011370771
71	0x3c4d7ef6	0.012542477
72	0x3c61e004	0.01378632
73	0x3c765fee	0.01503752
74	0x3c84f1ad	0.016228521
75	0x3c8ef3db	0.017450264
76	0x3c98d141	0.018654468
77	0x3ca31996	0.019909661
78	0x3caf7444	0.021417744
79	0x3cbb8430	0.02289018
80	0x3cc8cd93	0.024512088
81	0x3cd777f9	0.026302325
82	0x3ce69153	0.028145468
83	0x3cf7cec1	0.030249955
84	0x3d027771	0.03185219
85	0x3d08763f	0.033315893
86	0x3d0da66d	0.034582544
87	0x3d128b20	0.03577721
88	0x3d16cd05	0.036816616
89	0x3d1a9104	0.037735954
90	0x3d1e8f6d	0.038711
91	0x3d221a87	0.03957608
92	0x3d25233f	0.040316816
93	0x3d27cd07	0.040967014
94	0x3d2a2bcf	0.041545685
95	0x3d2c773c	0.0421059
96	0x3c3599c5	0.011084025
97	0x3c2046dd	0.00978252
98	0x3c0d1a9d	0.008612302
99	0x3bf09dde	0.007343038
100	0x3bc8602f	0.0061149816
101	0x3b9d67ce	0.0048036342
102	0x3b64fb35	0.003493977
103	0x3afe1c95	0.001938718
104	0x3a5408ea	0.00080884865
105	0xb87503ff	-5.8416274e-05
106	0xba7822fc	-0.00094656623
107	0xbad43164	-0.0016189036
108	0xbaf4aafa	-0.0018666678
109	0xbaf29960	-0.0018508844
110	0xbaf8f7ad	-0.0018994712
111	0xbb07ad82	-0.0020702784
112	0xbb0cf178	-0.0021506231
113	0xbb237bca	-0.002494561
114	0xbb1dfca7	-0.0024106891
115	0xbb184328	-0.0023233388
116	0xbb1e6264	-0.0024167532
117	0xbb251839	-0.002519144
118	0xbb31c9b5	-0.0027128283
119	0xbb312224	-0.0027028406
120	0xbb1fa6e1	-0.0024360942
121	0xbb0f740a	-0.0021889233
122	0xbb003e68	-0.0019568447
123	0xbaf6cb47	-0.0018828892
124	0xbae62003	-0.0017557148
125	0xbad6df94	-0.0016393536
126	0xbad1e2a0	-0.0016012974
127	0xbab5e800	-0.0013878345
128	0xba6849b4	-0.000886108
129	0xb9d6e9d1	-0.00040991468
130	0x392f99c3	0.00016746581
131	0x3a6c202f	0.0009007481
132	0x3ad623ed	0.0016337611
133	0x3b13a7e1	0.0022530484
134	0x3b206096	0.0024471632
135	0x3b27e2a9	0.0025617278
136	0x3b369ef7	0.0027865747
137	0x3b3bcfad	0.002865772
138	0x3b4ace2f	0.003094565
139	0x3b5b52df	0.0033466143
140	0x3b6448d4	0.0034833448
141	0x3b75da89	0.003751429
142	0x3b7e9102	0.0038843756
143	0x3b817fe4	0.0039520133
144	0x3b7e1ff9	0.0038776381
145	0x3b7987c5	0.003807531
146	0x3b723f8f	0.0036964153
147	0x3b6871d4	0.0035468237
148	0x3b66fcc4	0.0035245875
149	0x3b71fd89	0.00369248
150	0x3b7a889e	0.0038228403
151	0x3b8d84e8	0.004318822
152	0x3b9e01a3	0.0048219725
153	0x3ba6193a	0.005068925
154	0x3baf6a7f	0.0053532715
155	0x3bb4a766	0.0055131195
156	0x3bbed95c	0.005824251
157	0x3bc2c054	0.0059433375
158	0x3bc211fb	0.0059225536
159	0x3bcb168c	0.006197756
160	0x3bd8df1c	0.0066183936
161	0x3be79ce6	0.0070682643
162	0x3bfc11de	0.0076925596
163	0x3c0d2ed5	0.008617123
164	0x3c1b4ab2	0.009478258
165	0x3c2aed25	0.010432516
166	0x3c3814c2	0.011235418
167	0x3c49a02b	0.012306253
168	0x3c5ec9d2	0.013597922
169	0x3c750c51	0.01495655
170	0x3c85cd7b	0.016333332
171	0x3c90aae2	0.017659608
172	0x3c9b3ec4	0.018950827
173	0x3ca54357	0.020173712
174	0x3caf8080	0.021423578
175	0x3cbc7771	0.023006173
176	0x3cc8d33b	0.024514785
177	0x3cd5b5c8	0.026087657
178	0x3ce3f8b6	0.027828556
179	0x3cf19c36	0.029493432
180	0x3cfd3836	0.030910593
181	0x3d0347af	0.032050785
182	0x3d077f69	0.033080492
183	0x3d0b1d78	0.03396365
184	0x3d0ec7e5	0.034858603
185	0x3d12198b	0.03566889
186	0x3d158e1d	0.036512483
187	0x3d18d0f9	0.037308667
188	0x3d1bb0a8	0.03801027
189	0x3d1e84db	0.03870092
190	0x3d20da63	0.03927077
191	0x3d230953	0.039803814
192	0x3c45ea47	0.012079782
193	0x3c3252f1	0.010884033
194	0x3c1d759e	0.009610562
195	0x3c09f563	0.008420321
196	0x3bea1a06	0.0071442155
197	0x3bc01a14	0.0058624838
198	0x3b936ff2	0.004499429
199	0x3b4c3dae	0.0031164694
200	0x3ae8c3a7	0.0017758504
201	0x3a1c17f8	0.00059544994
202	0xb9c3db39	-0.00037356632
203	0xbaaab2c7	-0.001302325
204	0xbb000a37	-0.0019537339
205	0xbb13033d	-0.002243235
206	0xbb0720f2	-0.0020619002
207	0xbb0c76a8	-0.002143303
208	0xbb1a8077	-0.0023575106
209	0xbb2099ad	-0.002450566
210	0xbb2ec6f6	-0.0026668883
211	0xbb2c6a02	-0.0026308303
212	0xbb24e8dc	-0.002516321
213	0xbb2d3c3b	-0.0026433605
214	0xbb321ba6	-0.0027177124
215	0xbb39e783	-0.0028366752
216	0xbb3303ed	-0.0027315572
217	0xbb23ffe1	-0.0025024342
218	0xbb158355	-0.0022813876
219	0xbb070e56	-0.002060791
220	0xbaff0aab	-0.0019458135
221	0xbaed7f54	-0.0018119612
222	0xbae3172b	-0.001732563
223	0xbada92d9	-0.0016675844
224	0xbab8a263	-0.0014086481
225	0xba6d6c07	-0.000905693
226	0xb9bb6a08	-0.0003574642
227	0x398af7e6	0.0002650611
228	0x3a92ae0c	0.0011190786
229	0x3af2dc4c	0.0018528788
230	0x3b21a312	0.0024663848
231	0x3b2e5e9a	0.002660668
232	0x3b3a8071	0.0028457905
233	0x3b4b3460	0.003100656
234	0x3b506c87	0.0031802969
235	0x3b5d30b3	0.003375095
236	0x3b70c717	0.003673976
237	0x3b7bc8d1	0.0038419256
238	0x3b87a459	0.004139465
239	0x3b8cbc87	0.004294935
240	0x3b8e58aa	0.0043440657
241	0x3b8bce3b	0.004266528
242	0x3b8ad47b	0.0042367554
243	0x3b87e2ef	0.0041469256
244	0x3b835a0d	0.0040085376
245	0x3b839840	0.0040159523
246	0x3b8b0b3b	0.004243282
247	0x3b91412d	0.0044328184
248	0x3ba0d80c	0.0049085673
249	0x3bb178d7	0.0054160166
250	0x3bb9ab72	0.00566619
251	0x3bc485b4	0.005997384
252	0x3bcad7f3	0.006190294
253	0x3bd48b38	0.0064863227
254	0x3bda2220	0.0066569
255	0x3bdd74c2	0.0067583034

Linear_Trend.bias f4 [30]
0	0xbda1065f	-0.07862543
1	0x3bdcdc57	0.0067401337
2	0xbd215040	-0.039383173
3	0xbd274754	-0.04083951
4	0xbd4e5fc8	-0.050384313
5	0xbd16a2cf	-0.03677636
6	0x3cd0744b	0.025446078
7	0xbd960feb	-0.07327255
8	0x3c9d28d8	0.019184515
9	0x3b8c13f7	0.004274841
10	0xbce5ed89	-0.028067367
11	0xbdc5ff49	-0.096678324
12	0xbcf6f417	-0.030145688
13	0x3d9c3da1	0.07628942
14	0xbd930b90	-0.0717994
15	0x3bc06a13	0.00587202
16	0xbd72348d	-0.059132148
17	0x3d8ba984	0.06819442
18	0xbca4e6e2	-0.020129625
19	0x3a86179e	0.0010230427
20	0xbced9ca9	-0.029005365
21	0xbd049508	-0.03236869
22	0x3d217529	0.039418373
23	0x3d5b6edb	0.053572517
24	0xbd65adc6	-0.056073926
25	0xbc984bf4	-0.018590905
26	0xbd4c3657	-0.04985651
27	0x3cba3de3	0.022734588
28	0x3c769da3	0.015052232
29	0xbdb3297b	-0.08748146
